…
Read 24270 sentence pairs
Filtered to 22410 pairs
Indexing words...
Indexed 15361 words in input language, 15361 words in output
keep_words 5454 / 15357 = 0.3551
There are 22410 pairs sentence in total
There are 1450489 tokens in data
Read 24270 sentence pairs
Filtered to 22410 pairs
Indexing words...
Indexed 15361 words in input language, 15361 words in output
keep_words 5454 / 15357 = 0.3551
There are 22410 pairs in total
There are 5441 words in total
The max length of sentence is: 111
The encoder sentences average length is: 11.87
The decoder sentences average length is: 12.34
EncoderRNN(
  (embedding): Embedding(5454, 300)
  (embedding_dropout): Dropout(p=0.2)
  (gru): GRU(300, 256, num_layers=2, dropout=0.2, bidirectional=True)
)
AttnDecoderRNN(
  (embedding_pretrained): Embedding(5454, 300)
  (embedding_dropout): Dropout(p=0.2)
  (gru): GRU(300, 256, dropout=0.2)
  (topic_transofm): Linear(in_features=50, out_features=256, bias=True)
  (concat): Linear(in_features=768, out_features=256, bias=True)
  (out): Linear(in_features=256, out_features=5454, bias=True)
  (attn): Attn(
    (linear_in): Linear(in_features=256, out_features=256, bias=False)
    (sm): Softmax()
    (linear_out): Linear(in_features=512, out_features=256, bias=False)
    (tanh): Tanh()
  )
)
VAE(
  (fc1): Linear(in_features=5441, out_features=256, bias=True)
  (fc21): Linear(in_features=256, out_features=50, bias=True)
  (fc22): Linear(in_features=256, out_features=50, bias=True)
  (fc3): Linear(in_features=50, out_features=5441, bias=True)
)
Topic_Transition(
  (fc1): Linear(in_features=306, out_features=256, bias=True)
  (fc21): Linear(in_features=256, out_features=50, bias=True)
  (fc22): Linear(in_features=256, out_features=50, bias=True)
)
Epoch: 1 / 35, Accumulate Time to End: 0m 36s (- 296m 32s), (Batch: 10 / Batches Num: 140, Percent Run: 0.20%), Loss:-17.3617
Epoch: 1 / 35, Accumulate Time to End: 1m 11s (- 289m 24s), (Batch: 20 / Batches Num: 140, Percent Run: 0.41%), Loss:-18.8156
Epoch: 1 / 35, Accumulate Time to End: 1m 47s (- 289m 46s), (Batch: 30 / Batches Num: 140, Percent Run: 0.61%), Loss:-18.8969
…
